…
I0408 16:01:20.856271 10380 net.cpp:322] The NetState phase (0) differed from the phase (1) specified by a rule in layer accuracy
I0408 16:01:20.856271 10380 net.cpp:58] Initializing net from parameters: 
name: "LogReg"
state {
  phase: TRAIN
  level: 0
  stage: ""
}
layer {
  name: "mnist"
  type: "Data"
  top: "data"
  top: "label"
  include {
    phase: TRAIN
  }
  transform_param {
    scale: 0.00390625
  }
  data_param {
    source: "D:/DL/caffe-master/examples/deep_learning_localization/data/lmdb/train"
    batch_size: 10
    backend: LMDB
  }
}
layer {
  name: "fc1"
  type: "InnerProduct"
  bottom: "data"
  top: "fc1"
  param {
    lr_mult: 1
    decay_mult: 1
  }
  param {
    lr_mult: 2
    decay_mult: 0
  }
  inner_product_param {
    num_output: 40
    weight_filler {
      type: "xavier"
    }
    bias_filler {
      type: "constant"
      value: 0
    }
  }
}
layer {
  name: "relu1"
  type: "ReLU"
  bottom: "fc1"
  top: "fc1"
}
layer {
  name: "fc2"
  type: "InnerProduct"
  bottom: "fc1"
  top: "fc2"
  param {
    lr_mult: 1
    decay_mult: 1
  }
  param {
    lr_mult: 2
    decay_mult: 0
  }
  inner_product_param {
    num_output: 2
    weight_filler {
      type: "xavier"
    }
    bias_filler {
      type: "constant"
      value: 0
    }
  }
}
layer {
  name: "loss"
  type: "SoftmaxWithLoss"
  bottom: "fc2"
  bottom: "label"
  top: "loss"
}
I0408 16:01:20.856271 10380 layer_factory.hpp:77] Creating layer mnist
I0408 16:01:20.856271 10380 common.cpp:36] System entropy source not available, using fallback algorithm to generate seed instead.
I0408 16:01:20.856271 10380 net.cpp:100] Creating Layer mnist
I0408 16:01:20.856271 10380 net.cpp:408] mnist -> data
I0408 16:01:20.856271 10380 net.cpp:408] mnist -> label
I0408 16:01:20.857271  6588 db_lmdb.cpp:40] Opened lmdb D:/DL/caffe-master/examples/deep_learning_localization/data/lmdb/train
I0408 16:01:20.857271 10380 data_layer.cpp:41] output data size: 10,1,1,50
I0408 16:01:20.857271 10380 net.cpp:150] Setting up mnist
I0408 16:01:20.857271 10380 net.cpp:157] Top shape: 10 1 1 50 (500)
I0408 16:01:20.857271 10380 net.cpp:157] Top shape: 10 (10)
I0408 16:01:20.857271 10380 net.cpp:165] Memory required for data: 2040
I0408 16:01:20.857271 10380 layer_factory.hpp:77] Creating layer fc1
I0408 16:01:20.857271 10380 net.cpp:100] Creating Layer fc1
I0408 16:01:20.857271 10380 net.cpp:434] fc1 <- data
I0408 16:01:20.857271 10380 net.cpp:408] fc1 -> fc1
I0408 16:01:20.857271 10380 net.cpp:150] Setting up fc1
I0408 16:01:20.857271 10380 net.cpp:157] Top shape: 10 40 (400)
I0408 16:01:20.857271 10380 net.cpp:165] Memory required for data: 3640
I0408 16:01:20.857271 10380 layer_factory.hpp:77] Creating layer relu1
I0408 16:01:20.857271 10380 net.cpp:100] Creating Layer relu1
I0408 16:01:20.857271 10380 net.cpp:434] relu1 <- fc1
I0408 16:01:20.857271 10380 net.cpp:395] relu1 -> fc1 (in-place)
I0408 16:01:20.857271 10380 net.cpp:150] Setting up relu1
I0408 16:01:20.857271 10380 net.cpp:157] Top shape: 10 40 (400)
I0408 16:01:20.857271 10380 net.cpp:165] Memory required for data: 5240
I0408 16:01:20.857271 10380 layer_factory.hpp:77] Creating layer fc2
I0408 16:01:20.857271 10380 net.cpp:100] Creating Layer fc2
I0408 16:01:20.857271 10380 net.cpp:434] fc2 <- fc1
I0408 16:01:20.857271 10380 net.cpp:408] fc2 -> fc2
I0408 16:01:20.857271 10380 net.cpp:150] Setting up fc2
I0408 16:01:20.857271 10380 net.cpp:157] Top shape: 10 2 (20)
I0408 16:01:20.857271 10380 net.cpp:165] Memory required for data: 5320
I0408 16:01:20.857271 10380 layer_factory.hpp:77] Creating layer loss
I0408 16:01:20.857271 10380 net.cpp:100] Creating Layer loss
I0408 16:01:20.857271 10380 net.cpp:434] loss <- fc2
I0408 16:01:20.857271 10380 net.cpp:434] loss <- label
I0408 16:01:20.857271 10380 net.cpp:408] loss -> loss
I0408 16:01:20.857271 10380 layer_factory.hpp:77] Creating layer loss
…
I0408 16:01:20.858271 10380 solver.cpp:181] Creating test net (#0) specified by net file: D:/DL/caffe-master/examples/deep_learning_localization/deploy/LogisticRegressionNet.prototxt
I0408 16:01:20.858271 10380 net.cpp:322] The NetState phase (1) differed from the phase (0) specified by a rule in layer mnist
I0408 16:01:20.858271 10380 net.cpp:58] Initializing net from parameters: 
name: "LogReg"
state {
  phase: TEST
}
layer {
  name: "mnist"
  type: "Data"
  top: "data"
  top: "label"
  include {
    phase: TEST
  }
  transform_param {
    scale: 0.00390625
  }
  data_param {
    source: "D:/DL/caffe-master/examples/deep_learning_localization/data/lmdb/test"
    batch_size: 10
    backend: LMDB
  }
}
layer {
  name: "fc1"
  type: "InnerProduct"
  bottom: "data"
  top: "fc1"
  param {
    lr_mult: 1
    decay_mult: 1
  }
  param {
    lr_mult: 2
    decay_mult: 0
  }
  inner_product_param {
    num_output: 40
    weight_filler {
      type: "xavier"
    }
    bias_filler {
      type: "constant"
      value: 0
    }
  }
}
layer {
  name: "relu1"
  type: "ReLU"
  bottom: "fc1"
  top: "fc1"
}
layer {
  name: "fc2"
  type: "InnerProduct"
  bottom: "fc1"
  top: "fc2"
  param {
    lr_mult: 1
    decay_mult: 1
  }
  param {
    lr_mult: 2
    decay_mult: 0
  }
  inner_product_param {
    num_output: 2
    weight_filler {
      type: "xavier"
    }
    bias_filler {
      type: "constant"
      value: 0
    }
  }
}
layer {
  name: "loss"
  type: "SoftmaxWithLoss"
  bottom: "fc2"
  bottom: "label"
  top: "loss"
}
layer {
  name: "accuracy"
  type: "Accuracy"
  bottom: "fc2"
  bottom: "label"
  top: "accuracy"
  include {
    phase: TEST
  }
}
I0408 16:01:20.858271 10380 layer_factory.hpp:77] Creating layer mnist
I0408 16:01:20.858271 10380 net.cpp:100] Creating Layer mnist
I0408 16:01:20.858271 10380 net.cpp:408] mnist -> data
I0408 16:01:20.858271 10380 net.cpp:408] mnist -> label
I0408 16:01:20.858271  6576 db_lmdb.cpp:40] Opened lmdb D:/DL/caffe-master/examples/deep_learning_localization/data/lmdb/test
I0408 16:01:20.858271 10380 data_layer.cpp:41] output data size: 10,1,1,50
I0408 16:01:20.858271 10380 net.cpp:150] Setting up mnist
I0408 16:01:20.858271 10380 net.cpp:157] Top shape: 10 1 1 50 (500)
I0408 16:01:20.858271 10380 net.cpp:157] Top shape: 10 (10)
I0408 16:01:20.858271 10380 net.cpp:165] Memory required for data: 2040
I0408 16:01:20.858271 10380 layer_factory.hpp:77] Creating layer label_mnist_1_split
I0408 16:01:20.858271 10380 net.cpp:100] Creating Layer label_mnist_1_split
I0408 16:01:20.858271 10380 net.cpp:434] label_mnist_1_split <- label
I0408 16:01:20.858271 10380 net.cpp:408] label_mnist_1_split -> label_mnist_1_split_0
I0408 16:01:20.858271 10380 net.cpp:408] label_mnist_1_split -> label_mnist_1_split_1
I0408 16:01:20.858271 10380 net.cpp:150] Setting up label_mnist_1_split
I0408 16:01:20.858271 10380 net.cpp:157] Top shape: 10 (10)
I0408 16:01:20.858271 10380 net.cpp:157] Top shape: 10 (10)
I0408 16:01:20.858271 10380 net.cpp:165] Memory required for data: 2120
I0408 16:01:20.858271 10380 layer_factory.hpp:77] Creating layer fc1
I0408 16:01:20.858271 10380 net.cpp:100] Creating Layer fc1
I0408 16:01:20.858271 10380 net.cpp:434] fc1 <- data
I0408 16:01:20.858271 10380 net.cpp:408] fc1 -> fc1
I0408 16:01:20.858271 10380 net.cpp:150] Setting up fc1
I0408 16:01:20.858271 10380 net.cpp:157] Top shape: 10 40 (400)
I0408 16:01:20.858271 10380 net.cpp:165] Memory required for data: 3720
I0408 16:01:20.858271 10380 layer_factory.hpp:77] Creating layer relu1
I0408 16:01:20.858271 10380 net.cpp:100] Creating Layer relu1
I0408 16:01:20.858271 10380 net.cpp:434] relu1 <- fc1
I0408 16:01:20.858271 10380 net.cpp:395] relu1 -> fc1 (in-place)
I0408 16:01:20.858271 10380 net.cpp:150] Setting up relu1
I0408 16:01:20.858271 10380 net.cpp:157] Top shape: 10 40 (400)
I0408 16:01:20.858271 10380 net.cpp:165] Memory required for data: 5320
I0408 16:01:20.858271 10380 layer_factory.hpp:77] Creating layer fc2
I0408 16:01:20.858271 10380 net.cpp:100] Creating Layer fc2
I0408 16:01:20.858271 10380 net.cpp:434] fc2 <- fc1
I0408 16:01:20.858271 10380 net.cpp:408] fc2 -> fc2
I0408 16:01:20.858271 10380 net.cpp:150] Setting up fc2
I0408 16:01:20.858271 10380 net.cpp:157] Top shape: 10 2 (20)
I0408 16:01:20.858271 10380 net.cpp:165] Memory required for data: 5400
I0408 16:01:20.858271 10380 layer_factory.hpp:77] Creating layer fc2_fc2_0_split
I0408 16:01:20.858271 10380 net.cpp:100] Creating Layer fc2_fc2_0_split
I0408 16:01:20.858271 10380 net.cpp:434] fc2_fc2_0_split <- fc2
I0408 16:01:20.858271 10380 net.cpp:408] fc2_fc2_0_split -> fc2_fc2_0_split_0
I0408 16:01:20.858271 10380 net.cpp:408] fc2_fc2_0_split -> fc2_fc2_0_split_1
I0408 16:01:20.858271 10380 net.cpp:150] Setting up fc2_fc2_0_split
I0408 16:01:20.858271 10380 net.cpp:157] Top shape: 10 2 (20)
I0408 16:01:20.858271 10380 net.cpp:157] Top shape: 10 2 (20)
I0408 16:01:20.858271 10380 net.cpp:165] Memory required for data: 5560
I0408 16:01:20.858271 10380 layer_factory.hpp:77] Creating layer loss
I0408 16:01:20.858271 10380 net.cpp:100] Creating Layer loss
I0408 16:01:20.858271 10380 net.cpp:434] loss <- fc2_fc2_0_split_0
I0408 16:01:20.858271 10380 net.cpp:434] loss <- label_mnist_1_split_0
I0408 16:01:20.858271 10380 net.cpp:408] loss -> loss
…
